model_fin.pth (torch, 516748 bytes, 18 tensors)

enc1.weight f4 [64, 3, 3, 3]
-0.15130615 0.042156264 0.06670371 -0.08855898 0.08047884 0.07969102 0.07293415 0.048227523
-0.08065418 -0.16987723 -0.200252 -0.16773288 -0.0955441 -0.005882259 -0.003742283 -0.16798224
0.12833698 -0.052605994 0.16721219 -0.04675849 0.068644665 0.123618126 -0.041751556 0.029108038
0.0119282175 0.022120573 0.18003778 0.05196369 -0.061273444 -0.18218063 -0.038866933 0.17206061
0.07751286 -0.02215837 0.15496796 -0.028154232 -0.0062261443 0.03774827 -0.030633518 -0.048731413
0.041319277 -0.12106416 -0.1768836 -0.1380741 0.058774784 0.17586938 -0.06354781 0.04336801
-0.072374895 0.04797398 0.06682936 0.11304232 -0.15090233 -0.10823079 0.10514153 -0.12024287
-0.16716507 0.186848 0.1411123 0.06735851 0.04567993 -0.00208839 0.17357454 -0.07158933
-0.13929954 0.06747888 -0.12637839 0.13609909 -0.11750604 -0.12113252 0.095368475 -0.12525101
-0.09342332 -0.1451498 -0.054495506 0.07581087 -0.055031035 0.050559334 -0.028910065 0.049935818
-0.050088737 -0.01567846 0.12609331 0.26412743 -0.2668326 0.005566391 -0.15176767 -0.1778699
-0.063871525 -0.053345893 -0.18048859 0.16446906 0.18961567 -0.20407504 -0.090509996 -0.1275225
-0.19294691 -0.22989966 -0.17601475 0.09855853 0.24288315 0.02369627 -0.043665282 -0.17691544
-0.0513307 0.01890641 0.071733795 -0.03201871 -0.06355518 -0.11667337 0.004539099 0.021698717
0.15956995 -0.048287388 0.064122 -0.10181657 -0.14216988 0.11664696 0.012310767 -0.017901871
0.11673716 0.08807646 -0.17561166 0.06848018 0.07474221 -0.02264869 -0.0014627912 -0.07302322
0.05409817 0.1192323 -0.18307613 -0.06862753 0.099027246 -0.07254421 -0.120419756 -0.04408799
0.12470399 -0.14644875 0.10423809 0.14302492 0.008217941 0.087507784 0.056909464 0.00045334734
-0.115865156 0.0912206 -0.06230067 0.113222025 -0.13274878 -0.15677646 -0.02443348 0.064223476
0.01978229 -0.11526452 -0.12807904 -0.11058853 -0.097814925 -0.15429401 0.10392379 0.22537795
0.16993442 -0.052740205 -0.19248556 -0.19108218 -0.050721683 -0.09564649 0.16160107 0.18348105
-0.120188765 -0.015420324 0.00017655599 -0.06457085 -0.05444997 0.15349568 -0.044508044 0.037500083
-0.18226376 0.17272855 0.04421579 -0.1784133 0.15798344 0.18778484 0.15311436 0.16698234
-0.08233979 0.16633563 -0.10856182 0.1024689 -0.17610042 -0.13201696 -0.15986586 0.051795237
-0.1529846 -0.11085329 0.028584179 0.06276178 0.046399917 0.22470158 0.11509651 -0.08738931
-0.106156334 0.10711506 -0.15205474 -0.17386983 0.05363567 0.023287162 0.120342776 -0.18307014
-0.11644961 0.1643759 -0.20672396 -0.2343741 -0.09869873 0.1348862 0.23915416 0.20137668
0.15755366 -0.17810729 0.081993625 0.012820261 -0.08781109 0.1730729 0.03470003 -0.11843896
-0.063175246 0.004130733 -0.1828277 -0.10282113 0.026779214 0.12615454 -0.07935269 0.17668067
-0.157748 0.12963769 -0.0553344 0.029805178 -0.116290666 0.09233388 0.1823047 -0.14403169
0.06985836 0.14748229 0.15469204 -0.17316756 -0.08197768 -0.7902118 0.138323 0.3041339
-0.011239995 0.08801349 0.05929843 0.017446592 -0.008986919 -0.13562031 -0.7511264 -4.6955967e-05
00000000: 00f0 1abe 0cac 2c3d f49b 883d 695e b5bd
00000010: 17d2 a43d 0c35 a33d 805e 953d 398a 453d
00000020: 052e a5bd 4cf4 2dbe dc0e 4dbe 2bc2 2bbe
00000030: a0ac c3bd f7bf c0bb 1741 75bb 8903 2cbe
00000040: c56a 033e 6279 57bd ac39 2b3e d585 3fbd
00000050: 9395 8c3d 802b fd3d ae03 2bbd fb73 ee3c
00000060: 926e 433c 3436 b53c d35b 383e e1d7 543d
00000070: ddf9 7abd 8f8d 3abe ef32 1fbd a830 303e
00000080: 10bf 9e3d 7885 b5bc ecaf 1e3e b4a3 e6bc
00000090: af04 ccbb ee9d 1a3d 25f3 fabc 979a 47bd
000000a0: 673e 293d 7cf0 f7bd f920 35be 4c63 0dbe
000000b0: d4bd 703d 1a17 343e 5b25 82bd a8a2 313d
000000c0: 4a39 94bd 5d80 443d d5dd 883d bb82 e73d
000000d0: 2486 1abe 1ba8 ddbd 7154 d73d e541 f6bd
000000e0: 522d 2bbe 1555 3f3e be7f 103e 42f3 893d
000000f0: e11a 3b3d 5fdd 08bb 86bd 313e 6d9d 92bd
00000100: 8aa4 0ebe 5e32 8a3d 5669 01be 8f5d 0b3e
00000110: 02a7 f0bd 5414 f8bd 8c50 c33d cd41 00be
00000120: ba54 bfbd 26a2 14be ae36 5fbd bb42 9b3d
00000130: 3968 61bd 4e17 4f3d cdd4 ecbc 8089 4c3d
00000140: d929 4dbd 1d70 80bc 9b1e 013e b63b 873e
00000150: 489e 88be 4666 b63b fc68 1bbe 8723 36be
00000160: 13cf 82bd 3981 5abd 00d2 38be 946a 283e
00000170: 9c2a 423e 0cf9 50be 4e5d b9bd 4295 02be
00000180: e093 45be d16a 6bbe 363d 34be 0ed9 c93d
00000190: 5cb6 783e ae1e c23c 5eda 32bd 5229 35be
000001a0: 2440 52bd 9ee1 9a3c 2be9 923d 0d26 03bd
000001b0: 3829 82bd 73f2 eebd b9bc 943b 82c1 b13c
000001c0: 4e66 233e ffc8 45bd 6552 833d 3585 d0bd
000001d0: fb94 11be 9ae4 ee3d 19b3 493c f2a6 92bc
000001e0: e413 ef3d 6e61 b43d 8bd3 33be 563f 8c3d
000001f0: 7212 993d bf89 b9bc 21bb bfba 338d 95bd
00000200: 0b96 5d3d 1030 f43d 4f78 3bbe 978c 8cbd
00000210: ccce ca3d 0f92 94bd a29e f6bd 9c95 34bd
00000220: ce64 ff3d a9f6 15be c87a d53d 2075 123e
00000230: 8ba4 063c 4837 b33d e619 693d 40af ed39
00000240: b64a edbd ded1 ba3d fd2e 7fbd f3e0 e73d
00000250: 4cef 07be 028a 20be b928 c8bc 9987 833d
00000260: 780e a23c ce0f ecbd 2727 03be 3d7c e2bd
00000270: 3153 c8bd 40ff 1dbe ffd5 d43d 7ac9 663e
00000280: 4a03 2e3e 1d06 58bd ef1a 45be 0cab 43be
00000290: 8ac1 4fbd 4fe2 c3bd c07a 253e 75e2 3b3e
000002a0: 8725 f6bd 87a5 7cbc e321 3939 b93d 84bd
000002b0: ef06 5fbd f92d 1d3e 114e 36bd b099 193d
000002c0: 5aa3 3abe c1df 303e 9e1b 353d fab1 36be
000002d0: 69c6 213e ab4a 403e 03ca 1c3e 6bfd 2a3e
000002e0: c4a1 a8bd e353 2a3e a955 debd 37db d13d
000002f0: ab53 34be 742f 07be e0b3 23be 3e27 543d
00000300: ffa7 1cbe 0d07 e3bd 5e29 ea3c 4089 803d
00000310: d70d 3e3d 2c18 663e b8b7 eb3d 2bf9 b2bd
00000320: 7e68 d9bd 245f db3d 3db4 1bbe ef0a 32be
00000330: 14b1 5b3d b8c4 be3c 4676 f63d bd76 3bbe
00000340: 227d eebd 2852 283e 72af 53be c4ff 6fbe
00000350: 8f22 cabd 9c1f 0a3e d4e4 743e b035 4e3e
00000360: bf55 213e c261 36be 46ec a73d 120c 523c
00000370: 4dd6 b3bd 063a 313e 9e21 0e3d 2090 f2bd
00000380: 0662 81bd 1a5b 873b 2f37 3bbe e293 d2bd
00000390: 1560 db3c a82e 013e aa83 a2bd c7eb 343e
000003a0: b188 21be bebf 043e 53a6 62bd fd29 f43c
000003b0: cd29 eebd 8c19 bd3d 15ae 3a3e 0b7d 13be
000003c0: e611 8f3d 9905 173e 9767 1e3e d652 31be
000003d0: eae3 a7bd 524b 4abf 8ba4 0d3e 70b7 9b3e
000003e0: f527 38bc 6b40 b43d e9e2 723d 28ec 8e3c
000003f0: df3d 13bc 0de0 0abe d249 40bf 96f2 44b8

enc1.bias f4 [64]
0.035101157 0.19029169 0.20028687 0.019842358 0.18802571 -0.0013959472 -0.10638131 0.018654848
-0.07330284 -0.08584112 0.16573328 0.079903945 -0.25268397 -0.07461324 0.0953752 -0.05108508
0.13418315 -0.008447315 -0.16178529 0.011205871 0.09136544 0.09003113 0.17154774 -0.0010617167
-0.20046122 -0.0065057026 0.08805006 0.11655055 -0.16616476 0.13186073 0.008621074 0.15251006
-0.08297443 -0.013447433 -0.12443123 -0.103877395 -0.04081065 0.013010764 0.12035765 0.19419086
-0.18427029 0.17647134 -0.030904138 -0.020094471 -0.26680464 0.14718787 -0.13378909 -0.242074
0.13481207 -0.124224804 0.1945672 -0.097320944 0.084464535 0.13007744 0.046183582 0.12845054
0.18784706 0.24982496 -0.0093103135 -0.05340837 -0.038592696 -0.091680475 0.096054465 0.09480559
00000000: 3bc6 0f3d d3db 423e 0018 4d3e 718c a23c
00000010: d089 403e 37f8 b6ba 72de d9bd 0dd2 983c
00000020: cd1f 96bd 78cd afbd fcb5 293e aea4 a33d
00000030: cb5f 81be d4ce 98bd 1354 c33d 973e 51bd
00000040: 4f67 093e 9b66 0abc 0bab 25be d498 373c
00000050: ce1d bb3d 3e62 b83d 36aa 2f3e 4d29 8bba
00000060: b545 4dbe ca2d d5bb 9753 b43d 0eb2 ee3d
00000070: 1827 2abe 8006 073e 683f 0d3c 992b 1c3e
00000080: 7fee a9bd 9f52 5cbc cdd5 febd acbd d4bd
00000090: 1129 27bd 192b 553c 127e f63d f8d9 463e
000000a0: 5ab1 3cbe e7b4 343e ad2a fdbc 299d a4bc
000000b0: 9e9a 88be 6bb8 163e 0200 09be 3fe2 77be
000000c0: 2d0c 0a3e 9369 febd a03c 473e 3450 c7bd
000000d0: befb ac3d 0533 053e ff2a 3d3d 8a88 033e
000000e0: fb5a 403e 1dd2 7f3e 498a 18bc bcc2 5abd
000000f0: 6013 1ebd f9c2 bbbd 34b8 c43d 6f29 c23d

enc2.weight f4 [32, 64, 3, 3]
0.016953953 -0.02670345 0.031851776 -0.039648134 0.029435521 -0.038460955 -0.028031193 -0.017939867
-0.011188335 -0.037506036 -0.023057552 -0.010765658 -0.037972093 0.020555502 0.02390839 -0.014500669
0.020232925 0.018234206 0.022875194 -0.040103424 0.034779046 0.028226933 -0.046337873 0.01596331
0.02104366 0.027299555 -0.0420952 -0.010284573 0.024460798 -0.010268291 -0.010743777 -0.010874784
0.024202347 -0.031566158 0.0014496794 -0.007075454 -0.018517042 -0.017768145 0.0059490763 0.023023883
-0.035632607 0.02093556 0.015929088 -0.043385636 -0.04442938 0.010004368 0.039411075 0.012955354
-0.015114662 0.020816587 0.0065099564 0.029521324 -0.02458617 -0.029669557 0.03273263 0.03371334
0.030118367 -0.02242922 -0.024531092 0.0061711925 0.039449062 0.021997757 -0.027929552 0.023734387
-0.035346236 -0.037808746 0.015316081 0.013731475 0.031701565 0.03071455 0.035589963 0.03333222
0.018339261 -0.017612256 0.027585857 -0.04101952 0.012329217 -0.018710578 0.0017350804 0.0048947125
-0.01498307 0.025736393 -0.014697519 0.018109856 0.010904028 -0.014985854 0.03577527 -0.034988463
0.0003662731 -0.0025536667 0.029379655 -0.010542919 0.0035639824 0.019661626 0.008588202 0.020935155
0.02575146 -0.010196091 0.016104685 -0.029358529 -0.035007596 -0.017995408 -0.011731533 0.004505411
-0.042099047 -0.036542635 -0.0027432907 -0.029622685 0.0019993116 -0.011558414 -0.031723157 0.00870058
0.0358167 -0.026671793 -0.037628107 -0.040708385 -0.015371575 -0.0050572185 -0.019879682 -0.023692308
-0.015053824 0.0041663116 -0.043034084 -0.021848328 -0.031550173 -0.012626977 0.013828148 -0.028819999
0.025480242 0.007034601 -0.01710718 0.011894168 0.013583204 0.018453617 0.02083499 -0.008332804
-0.031998064 0.014892321 -0.026104493 0.018633729 -0.01331715 -0.016124066 0.023997705 0.018941628
-0.037371136 0.016900077 -0.005626321 -3.2192576e-05 0.02327329 -0.02729513 -0.03946693 -0.021237746
-0.025821576 -0.01592755 -0.0163743 0.008141226 0.02992269 0.03376938 0.030548437 0.023094136
-0.026992941 -0.021018984 0.026350543 0.038642168 0.006565312 0.010229542 0.03962737 0.040947743
-0.010627774 -0.039768 -0.034911975 0.021534493 -0.00051882863 -0.017815536 0.01652911 0.008694704
0.009964988 0.008095066 0.007598917 -0.0013141831 -0.02856008 0.023173492 0.013555023 -0.00820735
0.020023951 -0.029872146 -0.0028007154 -0.012099358 0.019905824 -0.0029307285 -0.013377159 -0.033619992
0.0088764755 -0.012714542 -0.0075376793 0.031386092 -0.044982206 -0.043975815 -0.032272886 0.021579536
0.03499572 0.010872641 -0.0017010747 0.030464197 -0.006674125 0.03193139 -0.0036060617 0.033013307
0.03267254 -0.023626348 -0.04285196 -0.03494368 0.030881597 -0.021481395 0.00601166 -0.019516945
0.025270104 0.031739436 0.026047412 -0.01978461 0.029366866 0.006452023 0.019862494 0.0019403816
0.013773584 -0.039714552 -0.016177248 0.03119661 -0.032301214 0.014881755 -0.032483764 -0.036922935
-0.032669783 -0.0053998684 -0.031271987 -0.023654085 0.02206786 -0.026147854 0.0057486594 -0.033029545
-0.016748292 -0.030683 0.027615158 0.022487838 0.00012871486 -0.010313888 0.020167792 -0.036894035
0.01751052 0.014382958 -0.029217685 -0.0064990236 -0.017640378 0.015764859 0.024771038 -0.040100873
00000000: 04e3 8a3c 32c1 dabc 0277 023d 1566 22bd
00000010: c322 f13c 3c89 1dbd aca1 e5bc a1f6 92bc
00000020: 474f 37bc ee9f 19bd 31e3 bcbc 7162 30bc
00000030: a088 1bbd 0364 a83c 87db c33c 3794 6dbc
00000040: 85bf a53c e75f 953c c264 bb3c 7d43 24bd
00000050: 7974 0e3d 2b3c e73c c8cc 3dbd 7dc5 823c
00000060: c163 ac3c 51a3 df3c 046c 2cbd a080 28bc
00000070: 0362 c83c 563c 28bc ab06 30bc 262c 32bc
00000080: 0044 c63c 844b 01bd 2b03 be3a 36d9 e7bb
00000090: 0db1 97bc 808e 91bc 78f0 c23b 959c bc3c
000000a0: 7ff3 11bd 0d81 ab3c b87d 823c 23b5 31bd
000000b0: 95fb 35bd 5ce9 233c 826d 213d b142 543c
000000c0: 7da3 77bc 8c87 aa3c 7951 d53b b4d6 f13c
000000d0: f068 c9bc 920d f3bc a612 063d 0017 0a3d
000000e0: cbba f63c 7cbd b7bc 6ef5 c8bc b737 ca3b
000000f0: 5795 213d a434 b43c 84cc e4bc 9e6e c23c
00000100: 37c7 10bd 58dd 1abd 4df0 7a3c fbf9 603c
00000110: 80d9 013d 149d fb3c c8c6 113d 5e87 083d
00000120: 383c 963c 9447 90bc bcfb e13c 1604 28bd
00000130: 7c00 4a3c ed46 99bc a36b e33a d363 a03b
00000140: 8d7b 75bc 21d5 d23c ddcd 70bc 1f5b 943c
00000150: cfa6 323c 3a87 75bc 1789 123d 1050 0fbd
00000160: 5808 c039 6b5b 27bb 9aad f03c 35bc 2cbc
00000170: b491 693b 6b11 a13c 88b5 0c3c 3480 ab3c
00000180: baf4 d23c 810d 27bc f9ed 833c 4c81 f0bc
00000190: 2064 0fbd 1b6b 93bc 9e35 40bc 20a2 933b
000001a0: 0d70 2cbd bbad 15bd c8c8 33bb 46ab f2bc
000001b0: e206 033b 815f 3dbc 24f0 01bd e18c 0e3c
000001c0: 88b4 123d ce7e dabc ee1f 1abd d6bd 26bd
000001d0: 0fd9 7bbc 06b7 a5bb b7da a2bc 5f16 c2bc
000001e0: 50a4 76bc 8e85 883b 8244 30bd 44fb b2bc
000001f0: c13a 01bd 61e1 4ebc 758f 623c eb17 ecbc
00000200: f1bb d03c 8382 e63b 5b24 8cbc c2df 423c
00000210: 168c 5e3c 0a2c 973c 24ae aa3c 5086 08bc
00000220: 6710 03bd ecfe 733c 17d9 d5bc c3a5 983c
00000230: 2d30 5abc 9e16 84bc d696 c43c 792b 9b3c
00000240: 7a12 19bd 0872 8a3c 005d b8bb 8406 07b8
00000250: a0a7 be3c 099a dfbc 13a8 21bd c8fa adbc
00000260: c587 d3bc 7e7a 82bc 6523 86bc c762 053c
00000270: 6e20 f53c c351 0a3d b740 fa3c ea2f bd3c
00000280: 4d20 ddbc 0130 acbc 18dd d73c 4047 1e3d
00000290: d421 d73b cf99 273c 4f50 223d d2b8 273d
000002a0: 1d20 2ebc c5e3 22bd dcff 0ebd 1b69 b03c
000002b0: 0002 08ba e3f1 91bc 0e68 873c 3b74 0e3c
000002c0: 3044 233c 2ba1 043c 5600 f93b ab40 acba
000002d0: d4f6 e9bc 56d6 bd3c e315 5e3c 1f78 06bc
000002e0: 4509 a43c 6eb6 f4bc 358c 37bb 633c 46bc
000002f0: 8a11 a33c 7711 40bb df2b 5bbc 1eb5 09bd
00000300: a36e 113c a850 50bc a3fe f6bb b48e 003d
00000310: 433f 38bd fc1f 34bd 9330 04bd 91c7 b03c
00000320: ac57 0f3d 2923 323c 98f6 deba 0d90 f93c
00000330: 9eb2 dabb 7dca 023d ad53 6cbb f638 073d
00000340: a4d3 053d 0b8c c1bc 8985 2fbd 1b21 0fbd
00000350: 67fb fc3c c0f9 afbc 76fd c43b 00e2 9fbc
00000360: 4003 cf3c 3601 023d 6261 d53c 5613 a2bc
00000370: c892 f03c 7e6b d33b abb6 a23c 6754 fe3a
00000380: 99aa 613c baab 22bd 2686 84bc 0890 ff3c
00000390: 474e 04bd 9bd2 733c b20d 05bd 813c 17bd
000003a0: c0d0 05bd 61f1 b0bb 0e17 00bd 36c6 c1bc
000003b0: a8c7 b43c 0634 d6bc 405f bc3b fd49 07bd
000003c0: b733 89bc ea5a fbbc 2f39 e23c 6a38 b83c
000003d0: a2f7 0639 95fb 28bc ed36 a53c 331e 17bd
000003e0: 3972 8f3c 80a6 6b3c ed59 efbc c3f5 d4bb
000003f0: 8e82 90bc 4e25 813c a2ec ca3c d040 24bd

enc2.bias f4 [32]
-0.013027164 -0.009456315 0.091604464 -0.0476725 0.014010391 0.06844385 0.02646441 -0.036086325
0.055990845 0.07659205 0.07636813 0.041370552 0.027242953 0.04392822 0.0788583 -0.046708655
0.056687675 -0.03159381 -0.05606337 0.040766403 -0.0118093 0.09566164 0.090911396 0.058470372
0.011141546 0.022665787 -0.0027024876 0.030803088 0.0910693 0.0337342 0.052567698 0.058088366
00000000: e36f 55bc a9ee 1abc 1f9b bb3d 3d44 43bd
00000010: d78b 653c 4a2c 8c3d e4cb d83c 41cf 13bd
00000020: a856 653d 4bdc 9c3d e566 9c3d 2b74 293d
00000030: 9d2c df3c 14ee 333d 7680 a13d 9351 3fbd
00000040: 5631 683d 8368 01bd b4a2 65bd acfa 263d
00000050: cb7b 41bc 40ea c33d c12f ba3d a17e 6f3d
00000060: 088b 363c 9aad b93c 381c 31bb c256 fc3c
00000070: 8b82 ba3d df2c 0a3d 3a51 573d 11ee 6d3d

enc3.weight f4 [16, 32, 3, 3]
0.036942184 -0.020431655 0.053120516 -0.00868458 -0.04769973 0.037233476 0.043293692 -0.0050150934
0.041204516 0.03364435 0.019466082 -0.0033534323 0.041997153 -0.0475614 0.021607567 -0.03854119
0.027336413 0.034692295 -0.017079068 0.09332556 0.03648904 -0.047075797 0.048024964 -0.005792453
0.05867578 0.018973425 -0.10287142 0.02663017 0.0031270245 -0.032496613 -0.014988417 -0.029827707
0.023223331 0.008687821 0.051183626 0.03790905 -0.0054429797 -0.030026324 -0.057285406 -0.059325296
-0.020493094 0.06880778 0.02103469 0.016054465 0.10145593 -0.057893775 0.03200295 0.04248991
0.058883004 0.047127225 -0.04468096 0.018612538 -0.012379665 0.02379941 -0.025107944 -0.090811655
-0.09324587 -0.07661355 0.050340477 0.07240301 0.015095038 0.04131065 0.06364256 -0.02464081
0.03981493 0.09891287 -0.019046212 0.07925465 0.0108214505 -0.008558524 0.087586775 -0.013892323
-0.080458865 0.015345402 0.015050741 0.0029725165 0.059888057 0.017788202 0.098238826 0.04670934
0.09089968 0.028586293 0.012987023 0.033741247 0.06748276 -0.006045377 0.054361194 0.014179628
0.07204474 -0.08335215 -0.098327056 0.03715507 0.21635176 0.054092832 -0.2538387 -0.16032177
0.26589856 -0.15557872 -0.19670519 0.039414868 0.023342578 0.12823415 0.017073149 -0.002964154
0.03245923 -0.027325224 0.10782671 0.1410022 -0.02459081 -0.13007836 0.005746557 0.02248044
0.017255882 0.016300287 -0.020596065 0.08011129 0.11376838 -0.015951954 -0.08115558 -0.056829054
-0.015096096 -0.03776855 0.055517923 -0.07325849 0.05268025 0.048750922 -0.06059686 0.012598302
0.036229312 -0.036707498 -0.011356263 -0.11108906 0.065541275 -0.081934206 -0.056920033 -0.062124275
-0.028098656 -0.043306682 -0.021294419 -0.016601292 0.0128402915 -0.054096848 -0.07890635 -0.010390105
0.15144971 0.07064895 -0.060457796 0.13699001 0.090885915 0.11259828 0.1146822 0.049376115
0.108276255 -0.05563748 0.018837024 0.049724586 0.0066011804 0.010644787 -0.032921102 -0.0140597625
-0.01982071 -0.06396072 -0.0034397969 -0.046299566 -0.020263609 0.037986595 0.037712887 0.06536487
-0.003975233 -0.056061126 -0.05126938 0.008155502 0.017784096 -0.053227246 -0.020328 -0.1299404
-0.10235705 0.04922161 -0.07487011 0.053312983 -0.038153213 0.040603407 -0.039957814 -0.057414003
0.0013971922 -0.039623834 -0.024044815 0.05292716 -0.024867142 -0.023019081 -0.040151156 -0.012389181
0.058472343 0.013003718 -0.08928461 0.0337739 0.007883274 -0.017164873 -0.008301997 0.08083571
-0.010486328 0.04461721 0.011142893 0.053911522 0.038898174 0.08014118 -0.10903315 -0.033006806
0.049029365 0.02237258 -0.024623187 0.018226761 0.090621725 -0.01640857 -0.022859924 -0.03930168
-0.0055896207 -0.009870455 -0.023256239 0.043782577 -0.057707503 -0.053169757 -0.049891375 0.0016840094
0.00023285432 0.10755088 0.058574636 0.15857786 -0.08225306 0.10611996 0.09753042 -0.0771749
0.02739041 -0.021881672 0.044239093 -0.0052990285 -0.0677375 -0.009599891 0.051620554 0.050608505
-0.0758735 0.062451676 0.050444633 -0.0930458 0.1310388 0.06150795 -0.008995347 0.06561303
0.023386264 -0.09927786 -0.040912647 -0.07374087 0.09853089 -0.04370179 -0.08695119 -0.08016928
00000000: b050 173d 4960 a7bc e694 593d c549 0ebc
00000010: cb60 43bd 2182 183d ba54 313d a755 a4bb
00000020: 11c6 283d a8ce 093d 5577 9f3c 42c5 5bbb
00000030: 3505 2c3d becf 42bd 5a02 b13c 5edd 1dbd
00000040: 9df0 df3c 8219 0e3d 67e9 8bbc 7921 bf3d
00000050: 8875 153d 8dd2 40bd d3b5 443d 9ece bdbb
00000060: 0456 703d 286e 9b3c 40ae d2bd 8427 da3c
00000070: c4ee 4c3b 2b1b 05bd fa91 75bc 3c59 f4bc
00000080: db3e be3c 5d57 0e3c eca5 513d 8546 1b3d
00000090: 065b b2bb c4f9 f5bc 1aa4 6abd 15ff 72bd
000000a0: 22e1 a7bc 18eb 8c3d f150 ac3c a784 833c
000000b0: 20c8 cf3d 0622 6dbd 8615 033d e609 2e3d
000000c0: 4e2f 713d 7a08 413d 6203 37bd 5279 983c
000000d0: 14d4 4abc fbf6 c23c 2daf cdbc 76fb b9bd
000000e0: b1f7 bebd 91e7 9cbd d131 4e3d 0848 943d
000000f0: 2e51 773c 5b35 293d 0857 823d 86db c9bc
00000100: fb14 233d d592 ca3d cd06 9cbc 4350 a23d
00000110: 744c 313c 0d39 0cbc b260 b33d a09c 63bc
00000120: 9ec7 a4bd 486b 7b3c 6297 763c 8dce 423b
00000130: 2e4d 753d 90b8 913c 7031 c93d 4b52 3f3d
00000140: 9d29 ba3d cd2d ea3c 86c7 543c 4334 0a3d
00000150: 6734 8a3d 4c18 c6bb d8a9 5e3d ac51 683c
00000160: 318c 933d 88b4 aabd b25f c9bd ea2f 183d
00000170: 518b 5d3e 7290 5d3d 25f7 81be 642b 24be
00000180: db23 883e 0750 1fbe 166d 49be 7c71 213d
00000190: ef38 bf3c d04f 033e fddc 8b3c 4042 42bb
000001a0: f8f3 043d 26d9 dfbc 40d4 dc3d e162 103e
000001b0: ab72 c9bc 4333 05be 9d4d bc3b e628 b83c
000001c0: 355c 8d3c 2e88 853c 14b9 a8bc 6311 a43d
000001d0: 65ff e83d acad 82bc e634 a6bd 95c5 68bd
000001e0: 9e55 77bc 32b3 1abd c366 633d 8c08 96bd
000001f0: 3fc7 573d 0caf 473d 6a34 78bd 1c69 4e3c
00000200: 3065 143d 9a5a 16bd 9f0f 3abc a982 e3bd
00000210: 813a 863d 1fcd a7bd fb24 69bd 0676 7ebd
00000220: 272f e6bc 5962 31bd a271 aebc 6fff 87bc
00000230: 1660 523c a894 5dbd a799 a1bd 423b 2abc
00000240: a215 1b3e 66b0 903d 98a2 77bd 1c47 0c3e
00000250: 6522 ba3d ed99 e63d 80de ea3d 9c3e 4a3d
00000260: f1bf dd3d 20e4 63bd 1a50 9a3c 02ac 4b3d
00000270: b74e d83b 7967 2e3c 47d8 06bd eb5a 66bc
00000280: 0b5f a2bc d7fd 82bd 376e 61bb 9da4 3dbd
00000290: deff a5bc d597 1b3d d478 1a3d 04de 853d
000002a0: ac42 82bb 5aa0 65bd d7ff 51bd a89e 053c
000002b0: f4af 913c d004 5abd e886 a6bc 190f 05be
000002c0: 93a0 d1bd 999c 493d 8055 99bd b75e 5a3d
000002d0: 8b46 1cbd c24f 263d ceaa 23bd f22a 6bbd
000002e0: fe21 b73a 9a4c 22bd a2f9 c4bc 26ca 583d
000002f0: 2db6 cbbc 8392 bcbc 8a75 24bd fefb 4abc
00000300: b280 6f3d 8c0d 553c d9da b6bd 8056 0a3d
00000310: d928 013c 599d 8cbc 1905 08bc 318d a53d
00000320: d9ce 2bbc 89c0 363d ae90 363c 54d2 5c3d
00000330: b153 1f3d 0f21 a43d c64c dfbd 2532 07bd
00000340: 04d3 483d b346 b73c 91b6 c9bc 4a50 953c
00000350: e297 b93d 446b 86bc bc44 bbbc ccfa 20bd
00000360: 2329 b7bb b0b7 21bc de83 bebc 5c55 333d
00000370: b45e 6cbd 88c8 59bd e65a 4cbd fbb9 dc3a
00000380: 5b2a 7439 a343 dc3d f5eb 6f3d 3c62 223e
00000390: 4b74 a8bd 6c55 d93d 07be c73d e00d 9ebd
000003a0: da61 e03c 3141 b3bc 0d34 353d 79a3 adbb
000003b0: f5b9 8abd dc48 1dbc 1370 533d dd4a 4f3d
000003c0: 9163 9bbd 54cd 7f3d 089f 4e3d cc8e bebd
000003d0: 092f 063e c3ef 7b3d 3861 13bc 2060 863d
000003e0: 8d94 bf3c 3152 cbbd 0594 27bd 7405 97bd
000003f0: 90ca c93d a600 33bd 7713 b2bd cb2f a4bd

enc3.bias f4 [16]
-0.04060054 -0.050662708 0.030383214 -0.03786553 -0.055384897 -0.069349356 0.06656377 0.039695445
0.061269343 0.028714195 0.012912467 -0.0053143394 -0.045764867 0.10711458 0.029886315 -0.047050145
00000000: c04c 26bd b383 4fbd 38e6 f83c e318 1bbd
00000010: 46db 62bd 0907 8ebd 9652 883d b197 223d
00000020: 90f5 7a3d 083a eb3c d08e 533c e923 aebb
00000030: f173 3bbd e45e db3d 25d4 f43c a7b7 40bd

enc4.weight f4 [8, 16, 3, 3]
0.02253903 0.08336174 0.06650049 0.05513448 -0.036366716 -0.12803884 0.003892215 -0.0726303
0.0032696137 0.06051397 -0.03369363 0.042373024 -0.014561472 -0.023966514 0.0029358903 0.054803252
-0.027937511 -0.078000896 0.013140128 0.072929256 0.072342806 0.01565701 0.10501092 0.0504548
-0.05004798 -0.028400393 0.049446568 0.07744065 -0.02496322 -0.075117454 0.082205586 0.03228634
0.04648198 -0.07023786 -0.070177644 0.04066966 -0.007042668 0.02729303 0.06986542 -0.050947394
-0.047472417 0.008196001 -0.003425089 -0.01230738 -0.033571612 -0.008244469 -0.15251485 -0.048962746
-0.024178743 -0.0758289 0.042577595 -0.012170219 -0.04745727 -0.08882919 -0.03600191 -0.0035825898
0.051186584 0.07339011 0.12638201 0.024084384 0.024395244 0.022785854 0.043469418 0.052257396
0.037731465 0.07194261 -0.049259648 -0.059597008 -0.0396494 0.019217294 -0.0031253197 -0.10429046
0.0011298448 0.036893737 0.013355115 -0.02388541 0.079275236 0.120351404 -0.10464226 0.02432733
0.075180575 -0.032254077 -0.07510983 -0.07400663 -0.02121664 0.09598538 0.055969816 0.02825408
0.029269852 0.08195873 -0.018113587 -0.018469406 0.062475324 0.036824558 0.10023824 0.0745761
-0.03393999 0.037063573 0.069853045 -0.0247191 -0.013698886 -0.047338277 -0.04385255 0.06582808
0.03867784 0.026842993 -0.0084384885 -0.07498031 -0.023166565 0.047904152 -0.03248888 0.059143677
0.09757349 0.005474818 -0.010032717 -0.015600661 0.09392047 -0.01883507 0.06825559 -0.038914904
0.038712695 -0.060354013 -0.07801284 -0.007791462 0.066016644 0.05057223 -0.03394079 0.054646447
-0.102217905 0.07667983 -0.06978676 0.012194015 0.04635421 -0.0648959 -0.035045896 0.06033734
0.08250496 -0.062187687 -0.06384437 -0.017589755 0.09620953 0.015880244 0.075351566 0.06642561
-0.0514578 0.035595022 -0.0668066 -0.036533765 0.05269459 0.013472836 -0.027452959 0.02940068
0.022376489 0.039321203 -0.038698338 0.06452169 -0.018813256 -0.037184667 0.06822837 -0.06689945
0.02937984 0.007396111 -0.04096192 -0.09615732 0.03396276 -0.18832651 -0.15702614 0.026438234
-0.14433527 -0.07604748 0.057022687 0.03285709 -0.030792829 -0.05780245 -0.07452378 -0.03339368
-0.07459095 0.004990389 0.017127108 -0.058696806 0.047183223 0.03067221 -0.023864552 -0.042510066
0.028169652 0.02988506 0.035740048 0.043551095 -0.066844516 -0.08890103 0.07247723 -0.031953376
0.03738298 0.12356795 -0.029264612 0.054746628 0.07464787 -0.036730736 -0.020221813 0.1260076
-0.06090164 0.027548071 0.12087293 0.03218325 -0.070819475 0.036501467 0.051335193 0.0021731735
-0.0028664668 -0.031927157 0.022764996 -0.031088848 -0.016349174 -0.018441545 -0.050092466 -0.007931483
-0.015839119 0.05270951 -0.04968431 -0.24435508 0.056035176 0.019268846 -0.253674 0.059268296
-0.042102173 -0.2580555 -0.07144628 0.10543791 -0.48903427 -0.07296295 0.013447612 -0.24286121
0.032768063 0.024037942 -0.09605056 0.042045772 -0.0027207048 -0.047160305 0.069418564 0.07933349
0.07093577 0.038008668 0.104727365 -0.04709083 0.06366967 -0.07526778 -0.03174669 0.031889953
-0.009734671 0.052465092 0.00940582 -0.080962054 -0.05568508 -0.09857125 0.024488399 0.06866813
00000000: c6a3 b83c 8fb9 aa3d 6931 883d b1d4 613d
00000010: 44f5 14bd 9d1c 03be 8814 7f3b 32bf 94bd
00000020: 0447 563b 7fdd 773d 5502 0abd 568f 2d3d
00000030: 3e93 6ebc 6c55 c4bc 1168 403b 6079 603d
00000040: 35dd e4bc efbe 9fbd b149 573c ef5b 953d
00000050: 7728 943d 2143 803c f70f d73d b1a9 4e3d
00000060: 1cff 4cbd f1a7 e8bc 7c88 4a3d 3499 9e3d
00000070: ab7f ccbc 2ed7 99bd 675b a83d ae3e 043d
00000080: e363 3e3d ded8 8fbd 4cb9 8fbd 3b95 263d
00000090: 2ec6 e6bb a295 df3c 9a15 8f3d 37ae 50bd
000000a0: 7072 42bd 8548 063c 7577 60bb e5a4 49bc
000000b0: 6382 09bd cf13 07bc da2c 1cbe 298d 48bd
000000c0: 8012 c6bc 2f4c 9bbd d865 2e3d 9965 47bc
000000d0: 8e62 42bd 14ec b5bd bd76 13bd e2c9 6abb
000000e0: 06a9 513d 8e4d 963d 496a 013e 9d4c c53c
000000f0: 89d8 c73c 66a9 ba3c fd0c 323d da0b 563d
00000100: 4f8c 1a3d a656 933d 7cc4 49bd fe1b 74bd
00000110: 6967 22bd 966d 9d3c 2ad2 4cbb 3d96 d5bd
00000120: 4d17 943a e31d 173d 6acf 5a3c 56ab c3bc
00000130: 0e5b a23d cc7a f63d ae4e d6bd 1c4a c73c
00000140: 46f8 993d da1c 04bd 2fd3 99bd ca90 97bd
00000150: 85ce adbc fc93 c43d 9b40 653d 1a75 e73c
00000160: 54c7 ef3c fbd9 a73d f262 94bc 274d 97bc
00000170: 20e6 7f3d 59d5 163d b549 cd3d 5bbb 983d
00000180: a904 0bbd f9cf 173d 1d0f 8f3d b67f cabc
00000190: 4b71 60bc c8e5 41bd bb9e 33bd dfd0 863d
000001a0: a86c 1e3d d6e5 db3c 9641 0abc 478f 99bd
000001b0: cfc7 bdbc 2537 443d 0f13 05bd a440 723d
000001c0: 9cd4 c73d 1a66 b33b 4460 24bc ea99 7fbc
000001d0: 6059 c03d 014c 9abc 96c9 8b3d 3c65 1fbd
000001e0: 3491 1e3d c535 77bd 32c5 9fbd 854f ffbb
000001f0: bc33 873d d424 4f3d 7f05 0bbd f4d4 5f3d
00000200: 9f57 d1bd 510a 9d3d 5cec 8ebd 68c9 473c
00000210: e9dd 3d3d 24e8 84bd 498c 0fbd 4924 773d
00000220: 5cf8 a83d 84b8 7ebd d6c0 82bd 6418 90bc
00000230: 8109 c53d 4917 823c ec51 9a3d 260a 883d
00000240: 6ac5 52bd 16cc 113d e6d1 88bd 6ea4 15bd
00000250: 48d6 573d 2cbd 5c3c 07e5 e0bc b2d9 f03c
00000260: e64e b73c 450f 213d 2682 1ebd f323 843d
00000270: 421e 9abc f34e 18bd 51bb 8b3d 9402 89bd
00000280: fdad f03c 135b f23b b0c7 27bd 21ee c4bd
00000290: 891c 0b3d aad8 40be 76cb 20be ff94 d83c
000002a0: a0cc 13be c8be 9bbd 9f90 693d 2895 063d
000002b0: 3e41 fcbc 43c2 6cbd ec9f 98bd d0c7 08bd
000002c0: 24c3 98bd 6b86 a33b 264e 8c3c 106c 70bd
000002d0: 3243 413d 4944 fb3c 987f c3bc 091f 2ebd
000002e0: 0bc4 e63c 83d1 f43c 2864 123d a262 323d
000002f0: c7e5 88bd be11 b6bd f16e 943d 8be1 02bd
00000300: e51e 193d 3211 fd3d 57bc efbc 003e 603d
00000310: fce0 983d f872 16bd 37a8 a5bc 2308 013e
00000320: 0074 79bd 7eac e13c 3a8c f73d 95d2 033d
00000330: cd09 91bd 9082 153d da44 523d cd6b 0e3b
00000340: 55db 3bbb 0dc6 02bd a87d ba3c 0aae febc
00000350: b4ee 85bc b912 97bc c22d 4dbd 0df3 01bc
00000360: 0ac1 81bc ede5 573d c681 4bbd 3838 7abe
00000370: 2485 653d b3d9 9d3c 8fe1 81be 50c3 723d
00000380: 5473 2cbd da1f 84be 6d52 92bd d5ef d73d
00000390: b362 fabe 996d 95bd 5f53 5c3c 9cb0 78be
000003a0: ce37 063d 38eb c43c 28b6 c4bd 3038 2c3d
000003b0: da4d 32bb 2a2b 41bd 522b 8e3d 9979 a23d
000003c0: c646 913d faae 1b3d 4d7b d63d 50e2 40bd
000003d0: 3e65 823d fe25 9abd d108 02bd 0a9f 023d
000003e0: 2b7e 1fbc a3e5 563d de1a 1a3c 6fcf a5bd
000003f0: 0a16 64bd b9df c9bd e59b c83c e0a1 8c3d

enc4.bias f4 [8]
-0.00016667119 -0.02488397 0.07733549 0.08560323 -0.027466325 0.18992825 0.1371493 -0.086822234
00000000: 75c4 2eb9 78d9 cbbc 1262 9e3d bf50 af3d
00000010: 0f01 e1bc 8d7c 423e de70 0c3e dbcf b1bd

dec1.weight f4 [16, 8, 3, 3]
-0.101886116 0.11592167 0.010545286 0.059896067 -0.04435777 -0.086509705 0.04937069 0.01087132
0.016110502 0.017543845 -0.05000818 0.17769428 -0.00973176 0.05833449 0.077347614 -0.0052268095
-0.039252322 0.025887147 0.07130438 -0.05731355 0.034330685 0.05451192 0.025857262 -0.098159075
0.02110976 -0.12229054 0.062187023 -0.16586637 -0.20347658 -0.03263242 0.023472011 0.05351537
0.07444344 0.017223967 0.047783043 -0.07158552 0.065854736 -0.07005787 -0.12259383 0.11934166
-0.042787466 0.028655898 0.039809015 0.02508589 0.11068622 0.036764596 0.1220081 0.026835445
-0.10901261 -0.023718351 0.03176111 0.029044822 0.0070486492 0.006444857 0.10832047 0.035294566
-0.05690028 -0.058844045 -0.05591224 -0.03133576 -0.007465989 0.005663719 0.077481344 0.044004634
0.00105036 -0.040042788 -0.043099906 0.10159072 -0.034004968 -0.049421392 -0.089528285 -0.032886818
-0.041436378 -0.030289503 -0.005818006 0.17981218 0.15915114 -0.029722108 -0.1296561 -0.032291606
0.028769631 -0.049184315 0.10930228 0.0774541 0.009958199 0.012738777 -0.16792423 0.023449019
-0.043091536 -0.08734844 -0.021079913 -0.011704071 -0.013481117 0.040112447 0.054635845 0.09399214
-0.027261732 -0.011592414 -0.05934917 -0.0976158 0.028780526 0.01671995 0.016862428 0.20659001
-0.025038969 -0.13143972 -0.07130293 -0.028482584 0.068746395 0.13166264 0.072379075 -0.050994113
-0.14101668 -0.03119328 0.008951174 0.048914216 0.028813174 0.030579349 -0.004412094 -0.08503519
0.20336442 0.042894367 0.026048008 0.15152745 0.21911141 -0.118721575 -0.0067108856 -0.018824415
-0.019403188 -0.041734643 -0.046195943 0.03164517 -0.061426997 -0.010224197 0.060636476 0.054912917
-0.09631536 -0.02200113 -0.028515315 0.09583422 0.0662032 0.015906444 -0.024301076 0.09198903
0.10726156 0.113178134 0.039848745 0.027200308 0.03476092 -0.094545916 0.04432478 0.05501382
0.023713676 0.019574886 -0.05451536 0.0138511835 -0.06424322 0.0350666 0.051954336 0.08451124
-0.071041934 -0.10027937 0.00582592 -0.06874134 -0.011851578 0.013626842 -0.124036305 -0.09897035
0.04333231 0.07181291 0.0011517553 0.015015434 0.027593257 -0.031588797 0.106601715 0.14699867
0.070810996 -0.014428541 -0.043672156 0.0056544156 -0.04924586 -0.11003364 0.06072351 -0.006250628
-0.02263095 0.014923161 0.00012881905 -0.03155046 -0.0044342545 -0.00834965 0.0046845106 -0.02048968
0.03792847 0.060292006 -0.072238356 0.037104428 0.115231 -0.10075511 0.051844884 -0.06547724
0.06364645 0.08359721 0.094771706 0.09150473 -0.033134095 0.062362693 0.026459025 -0.10086835
-0.048118614 0.030080821 -0.10370766 -0.005200043 0.017065734 -0.06021714 0.041289225 0.09914756
-0.047621682 0.09637874 0.0018522411 0.13549449 0.10271436 0.08009138 0.07869475 0.019063495
-0.09087487 -0.024352686 -0.09590271 0.10596025 0.029848233 0.06415773 0.052226536 -0.0043368763
0.036501933 0.11822955 -0.0015242273 -0.050354905 0.03892804 -0.05027997 0.0670785 0.0023308536
-0.031063953 0.030682214 0.020612203 -0.008325928 -0.14048296 -0.05623428 0.029916558 -0.10152487
-0.013838486 0.08675956 -0.016457371 -0.06021522 -0.110520355 0.059899393 -0.041875012 -0.039379776
00000000: aba9 d0bd 5768 ed3d 23c6 2c3c 9455 753d
00000010: 7eb0 35bd 002c b1bd ec38 4a3d 9f1d 323c
00000020: 2cfa 833c 1cb8 8f3c 61d5 4cbd 7df5 353e
00000030: f671 1fbc 25f0 6e3d 6d68 9e3d a845 abbb
00000040: 0bc7 20bd 4811 d43c 0808 923d 9dc1 6abd
00000050: 559e 0c3d e447 5f3d 9cd2 d33c a007 c9bd
00000060: 60ee ac3c 7673 fabd d2b7 7e3d e0d8 29be
00000070: 2a5c 50be 93a9 05bd 6048 c03c ef32 5b3d
00000080: cd75 983d 4719 8d3c 27b8 433d 6e9b 92bd
00000090: d9de 863d 807a 8fbd 7912 fbbd 6669 f43d
000000a0: e941 2fbd c6bf ea3c c70e 233d ed80 cd3c
000000b0: 75af e23d 7996 163d 62df f93d 02d6 db3c
000000c0: 0142 dfbd fd4c c2bc f017 023d 68ef ed3c
000000d0: 5bf8 e63b 612f d33b 1fd7 dd3d 0991 103d
000000e0: 4510 69bd 7406 71bd 3c04 65bd ed59 00bd
000000f0: 41a5 f4bb b896 b93b 8aae 9e3d 343e 343d
00000100: 3cac 893a e803 24bd 8789 30bd cc0e d03d
00000110: cb48 0bbd 166e 4abd 9b5a b7bd 54b4 06bd
00000120: 31b9 29bd b121 f8bc f9a4 bebb af20 383e
00000130: 84f8 223e c77b f3bc 92c4 04be 3444 04bd
00000140: 4aae eb3c 7e75 49bd e0d9 df3d 41a0 9e3d
00000150: b727 233c 4eb6 503c 54f4 2bbe 2818 c03c
00000160: c080 30bd bde3 b2bd c8af acbc 6fc2 3fbc
00000170: e7df 5cbc f34c 243d d6c9 5f3d f37e c03d
00000180: ff53 dfbc 1cee 3dbc 1e18 73bd cbea c7bd
00000190: 23c5 eb3c 47f8 883c 1323 8a3c 558c 533e
000001a0: 861e cdbc 2298 06be 4507 92bd 4f54 e9bc
000001b0: e9ca 8c3d 92d2 063e 7b3b 943d 34df 50bd
000001c0: ad66 10be 0d89 ffbc f2a7 123c 465a 483d
000001d0: 9b09 ec3c 8b81 fa3c 5493 90bb ee26 aebd
000001e0: c33e 503e 01b2 2f3d a262 d53c 032a 1b3e
000001f0: be5e 603e 4c24 f3bd fde6 dbbb a935 9abc
00000200: 6ff3 9ebc f2f1 2abd f537 3dbd 5e9e 013d
00000210: e09a 7bbd 6483 27bc f45d 783d 5eec 603d
00000220: fd40 c5bd b73b b4bc f398 e9bc bb44 c43d
00000230: 8b95 873d 3b4e 823c 0d13 c7bc bf64 bc3d
00000240: f3ab db3d f0c9 e73d 7038 233d 2ed3 de3c
00000250: 7761 0e3d 4aa1 c1bd e78d 353d 2c56 613d
00000260: 2f43 c23c 835b a03c 804b 5fbd 13f0 623c
00000270: f391 83bd ffa1 0f3d 12ce 543d 3b14 ad3d
00000280: 6f7e 91bd 455f cdbd 5ce7 be3b 42c8 8cbd
00000290: 1f2d 42bc 1e43 5f3c bf06 febd f8b0 cabd
000002a0: 387d 313d a612 933d 7ff6 963a 4b03 763c
000002b0: 410b e23c 4163 01bd 0052 da3d d286 163e
000002c0: 5b05 913d b065 6cbc 93e1 32bd ad48 b93b
000002d0: 07b6 49bd 5159 e1bd 37b9 783d 11d2 ccbb
000002e0: 8b64 b9bc 4680 743c 9a13 0739 0e3b 01bd
000002f0: 394d 91bb f8cc 08bc 8680 993b f9d9 a7bc
00000300: e25a 1b3d c0f4 763d b4f1 93bd d0fa 173d
00000310: 3bfe eb3d b258 cebd 4d5b 543d ee18 86bd
00000320: 1259 823d 0435 ab3d ab17 c23d d566 bb3d
00000330: 9eb7 07bd 0670 7f3d 99c0 d83c 1194 cebd
00000340: 0618 45bd 0e6c f63c af64 d4bd 1f65 aabb
00000350: 70cd 8b3c 3fa6 76bd e41e 293d e00d cb3d
00000360: f40e 43bd 3862 c53d e6c6 f23a 11bf 0a3e
00000370: e85b d23d f306 a43d b72a a13d 0c2b 9c3c
00000380: 9b1c babd 497f c7bc a468 c4bd b001 d93d
00000390: 4884 f43c 2165 833d 7eeb 553d 5b1c 8ebb
000003a0: 0d83 153d 5622 f23d 95c8 c7ba f240 4ebd
000003b0: 0273 1f3d 5ff2 4dbd 7460 893d 3cc1 183b
000003c0: d579 febc 4459 fb3c ecda a83c 7969 08bc
000003d0: c4da 0fbe eb55 66bd 9213 f53c 45ec cfbd
000003e0: d1ba 62bc ffae b13d 9cd1 86bc 3ca4 76bd
000003f0: 7f58 e2bd 1159 753d 2285 2bbd b04c 21bd

dec1.bias f4 [16]
0.102647446 -0.099971995 0.09044033 -0.055735637 -0.07884975 0.023878228 -0.03642239 0.024698706
-0.11532629 -0.12774074 -0.053207085 0.08153462 0.009009855 0.05097436 0.090701304 0.10866948
00000000: d338 d23d 1ebe ccbd c838 b93d 0d4b 64bd
00000010: fa7b a1bd 469c c33c a52f 15bd f154 ca3c
00000020: 3130 ecbd 78ce 02be acef 59bd 9ffb a63d
00000030: 129e 133c 7eca 503d 9bc1 b93d 1b8e de3d

dec2.weight f4 [32, 16, 3, 3]
0.045175646 0.02558812 0.0035246257 0.0689558 0.0050964174 -0.06630424 0.060969546 -0.042642955
-0.052007012 -0.02250979 0.0609409 0.010658273 -0.033124868 -0.07542268 0.05335326 -0.12653378
-0.05927554 -0.03922947 0.008737321 0.016356349 0.040084347 0.02027965 0.06356545 0.014441935
0.09663704 0.007887717 0.08009302 0.13782443 0.06297183 0.044651963 0.1064445 0.0026180637
0.116661236 0.07442538 -0.02019819 -0.019610012 0.042445727 -0.065684766 -0.08611019 0.036740657
0.0057164095 0.029851574 0.014692864 -0.002569665 0.027540384 0.051187813 -0.041420933 0.022053797
0.0023513883 -0.053754043 0.0022075386 -0.005239354 -0.002846132 0.06208305 -0.0006168692 -0.012949308
-0.020661756 0.09193144 0.015551324 -0.026668984 -0.022147706 0.02015993 -0.07725081 -0.06939011
-0.014207843 0.058492687 -0.0822439 -0.0009647403 0.03874859 0.073698364 -0.049504153 -0.037367184
0.10676746 -0.013333243 -0.038837004 0.039633647 -0.08027136 0.052205477 0.0026240877 0.02447117
-0.0040128366 -0.05167507 0.022161368 -0.067827456 -0.06356787 0.038147207 0.0059233834 0.08335612
-0.09754967 -0.040322956 0.04063654 0.052020356 -0.039723225 0.017256644 -0.08247591 0.01252686
0.047803394 0.06606765 -0.02457044 0.012160405 -0.015202432 -0.14648607 0.027367398 -0.035649538
-0.0100744665 0.0562642 0.028297072 -0.014974123 0.016036896 -0.038120817 -0.04238382 -0.065683395
0.027662868 0.0021894984 -0.08218579 -0.0671286 -0.0071872417 0.082052074 0.0095381765 -0.031434342
-0.046579856 0.050505638 0.018569268 0.030286163 -0.074090995 0.04230793 0.067390405 0.013633254
-0.049974382 -0.096120596 -0.074275896 -0.09453897 -0.08377226 -0.08408682 0.014352668 -0.020267285
0.020906365 0.07696685 0.112987354 0.07834671 0.034211863 -0.004538579 0.0577021 0.029788084
0.05534416 0.042218488 -0.0066753826 -0.026130063 0.07127798 -0.09858884 0.0608927 -0.03939756
0.018178735 -0.1026772 -0.015889069 -0.06362164 -0.095987834 -0.0035227707 0.048014283 -0.044649843
-0.014746935 -0.10313511 0.032021925 0.010952501 -0.2841734 0.051918495 -0.08924647 -0.15692668
0.005026332 -0.032719932 -0.264386 0.07754997 0.05763878 -0.042676527 0.03189763 0.011202391
-0.13693409 -0.048047774 -0.054482095 -0.06716484 0.0742467 0.10004114 -0.080153994 -0.002983275
0.04129974 -0.01688926 -0.058383938 0.00027434027 -0.00939851 0.10772605 -0.0076075764 -0.020795712
0.071870014 0.031247262 0.03825553 0.026176494 0.0033086434 -0.141624 0.14740828 0.045094702
0.061425798 0.14819312 0.07812235 0.008259668 0.06959734 0.117266655 0.0916216 -0.018802656
-0.04415804 -0.08766066 -0.018937152 -0.07982729 -0.16153778 0.10543793 0.14700341 -0.06627211
0.07692336 0.11361671 0.0035468866 -0.022783292 0.060027156 -0.0822229 0.10636448 -0.004156591
-0.0009200528 -0.08796165 0.026082905 -0.0022029511 -0.013217144 -0.06106669 -0.028618546 7.9536636e-05
-0.02785931 -0.008840365 0.059721675 -0.0015180873 0.05637855 -0.04656711 -0.034020916 0.004512289
0.04439706 -0.023456957 -0.010317886 -0.028233204 -0.005058981 -0.063304834 -0.062330004 -0.036882248
-0.020354861 0.040647257 -0.0051743663 0.031785518 -0.00852606 0.0548021 -0.005309538 0.035452552
00000000: 190a 393d 2d9e d13c 68fd 663b b338 8d3d
00000010: d9ff a63b 84ca 87bd 34bb 793d 61aa 2ebd
00000020: 4e05 55bd 7366 b8bc 2a9d 793d 09a0 2e3c
00000030: f1ad 07bd 3577 9abd f388 5a3d 1292 01be
00000040: e9ca 72bd 15af 20bd fb26 0f3c c0fd 853c
00000050: 7c2f 243d 8221 a63c 9a2e 823d de9d 6c3c
00000060: a4e9 c53d 7c3b 013c cf07 a43d d921 0d3e
00000070: 60f7 803d fae4 363d 93ff d93d d293 2b3b
00000080: 16ec ee3d 556c 983d ad76 a5bc 2da5 a0bc
00000090: 92db 2d3d bc85 86bd 8a5a b0bd 5f7d 163d
000000a0: b850 bb3b 4a8b f43c 57ba 703c d367 28bb
000000b0: 5f9c e13c 50aa 513d ffa8 29bd 2aaa b43c
000000c0: c019 1a3b 332d 5cbd 5aac 103b e3ae abbb
000000d0: 2c86 3abb cc4a 7e3d 64b5 21ba 5629 54bc
000000e0: d842 a9bc 8d46 bc3d fbca 7e3c ea78 dabc
000000f0: 1b6f b5bc 7026 a53c ac35 9ebd 671c 8ebd
00000100: 03c8 68bc 0796 6f3d 7d6f a8bd a0e6 7cba
00000110: d7b6 1e3d 2bef 963d dec4 4abd 550e 19bd
00000120: e6a8 da3d ad73 5abc 8d13 1fbd e456 223d
00000130: 5065 a4bd 69d5 553d e3f8 2b3b c377 c83c
00000140: 1d7e 83bb 3da9 53bd c28b b53c 1fe9 8abd
00000150: df2f 82bd 3f40 1c3d f118 c23b 9db6 aa3d
00000160: 1fc8 c7bd af29 25bd 8072 263d 4c13 553d
00000170: d2b4 22bd ce5d 8d3c 21e9 a8bd 763d 4d3c
00000180: 7ecd 433d 7a4e 873d f347 c9bc 6f3c 473c
00000190: 9f13 79bc 7200 16be 9831 e03c 4005 12bd
000001a0: 600f 25bc 4a75 663d 43cf e73c 0656 75bc
000001b0: cf5f 833c 9324 1cbd a89a 2dbd 0485 86bd
000001c0: 3d9d e23c b07d 0f3b 0651 a8bd b87a 89bd
000001d0: f482 ebbb eb0a a83d 0346 1c3c 4cc1 00bd
000001e0: 85ca 3ebd 00df 4e3d 941e 983c b01a f83c
000001f0: 05bd 97bd 144b 2d3d fb03 8a3d 035e 5f3c
00000200: f0b1 4cbd e0da c4bd f61d 98bd a69d c1bd
00000210: ca90 abbd b635 acbd 7427 6b3c 9407 a6bc
00000220: d343 ab3c cca0 9d3d ea65 e73d 3d74 a03d
00000230: bd21 0c3d 5cb8 94bb 0a59 6c3d 2406 f43c
00000240: 8fb0 623d 4bed 2c3d 2bbd dabb b70e d6bc
00000250: 31fa 913d f2e8 c9bd a06a 793d 565f 21bd
00000260: 92eb 943c 6d48 d2bd cb29 82bc 104c 82bd
00000270: 4595 c4bd 49de 66bb a0aa 443d c1e2 36bd
00000280: 219d 71bc 8038 d3bd 6c29 033d 1e72 333c
00000290: 2d7f 91be 7da8 543d dac6 b6bd 63b1 20be
000002a0: eeb3 a43b 5605 06bd 9a5d 87be 85d2 9e3d
000002b0: a416 6c3d 95cd 2ebd 17a7 023d 3c8a 373c
000002c0: 7338 0cbe becd 44bd 9e28 5fbd b88d 89bd
000002d0: a70e 983d 5fe2 cc3d c727 a4bd 0d83 43bb
000002e0: eb29 293d 585b 8abc ff23 6fbd 54d5 8f39
000002f0: 35fc 19bc 7a9f dc3d fa48 f9bb c55b aabc
00000300: 9630 933d 42fa ff3c d5b1 1c3d 1670 d63c
00000310: d3d5 583b e205 11be 32f2 163e 39b5 383d
00000320: 9e99 7b3d f0bf 173e 9cfe 9f3d 8f53 073c
00000330: 0d89 8e3d 8029 f03d 1ba4 bb3d 0708 9abc
00000340: 10df 34bd 6f87 b3bd 1622 9bbc 7d7c a3bd
00000350: 296a 25be d7ef d73d 1088 163e acb9 87bd
00000360: ff89 9d3d e1af e83d e272 683b 07a4 babc
00000370: 09df 753d 7b64 a8bd 9fd5 d93d 0334 88bb
00000380: b32f 71ba 3d25 b4bd d1ab d53c 635f 10bb
00000390: b88c 58bc 1121 7abd 7171 eabc e8cc a638
000003a0: 3539 e4bc 2ed7 10bc b79e 743d 8ffa c6ba
000003b0: 32ed 663d 27bd 3ebd 8459 0bbd d3db 933b
000003c0: b1d9 353d ce28 c0bc 5a0c 29bc 5249 e7bc
000003d0: cfc5 a5bb f7a5 81bd bf4d 7fbd d711 17bd
000003e0: 3dbf a6bc bd7d 263d bb8d a9bb 8831 023d
000003f0: e3b0 0bbc 2b78 603d a2fb adbb b236 113d

dec2.bias f4 [32]
0.06293077 0.061309334 -0.0066256155 0.01093723 0.09520106 0.09692842 -0.124601245 -0.06165425
-7.021824e-05 -0.037703406 0.06440169 -0.08460894 0.017456124 -0.021601103 -0.025005447 0.009657881
0.087094784 -0.047945052 -0.119115606 -0.023726786 -0.03971177 -0.12712161 0.013322193 0.08096835
0.013455413 0.13089995 0.017615974 -0.09902388 -0.13778397 -0.033374023 -0.11957325 -0.03976518
00000000: d9e1 803d 7f1f 7b3d b11b d9bb 1132 333c
00000010: c6f8 c23d 6882 c63d f02e ffbd 2b89 7cbd
00000020: 2142 93b8 e36e 1abd 09e5 833d 7447 adbd
00000030: 2500 8f3c ccf4 b0bc 39d8 ccbc 173c 1e3c
00000040: c05e b23d 0862 44bd e2f2 f3bd ad5e c2bc
00000050: cfa8 22bd 2b2c 02be 5445 5a3c bcd2 a53d
00000060: 1874 5c3c a30a 063e 604f 903c 08cd cabd
00000070: 3e17 0dbe 33b3 08bd d2e2 f4bd d0e0 22bd

dec3.weight f4 [64, 32, 3, 3]
0.027093781 -0.0157895 -0.0071586454 -0.004707666 0.023101564 -0.020872049 -0.041706976 -0.05334115
-0.019526457 -0.037431933 0.041712895 -0.0037463936 0.025430966 -0.04511104 -0.0055047804 -0.035285447
-0.05120455 0.045423973 0.05080772 -0.04433254 0.043258518 -0.00049380807 -0.054848813 0.029442461
-0.056797553 0.048417855 -0.06313819 -0.031349562 0.0528157 -0.018477645 0.0048500616 -0.0010140266
0.047218896 -0.024800595 -0.04289185 0.026450759 0.029685304 -0.033137657 -0.041002903 0.028467273
-0.0071221776 0.03233597 -0.044986073 0.0046034083 0.007957732 -0.01614286 -0.018734366 -0.03646025
0.01455479 0.048929002 -0.01588332 0.019978516 0.00057332683 0.004563248 -0.06291495 -0.06354108
-0.0427879 -0.0023758733 -0.013084349 -0.04186871 -0.035122693 -0.04120319 0.014386021 0.030178891
-0.032453164 -0.014364098 0.040098973 0.045758337 -0.06070499 -0.0602152 0.018007366 -0.05586118
-0.02615082 0.05001257 -0.036764335 -0.022590129 -0.054001864 -0.03083281 -0.06483623 0.034081697
-0.0012597772 -0.05420336 0.022597019 0.015822986 -0.049964678 -0.03349922 0.004070156 -0.044896346
-0.035734177 0.015821382 -0.017219668 -0.01854658 0.00518848 -0.046695802 0.029076453 0.024878165
-0.01892399 0.005248057 -0.061613135 -0.030515056 -0.02675978 0.055647504 -0.00042831735 0.02065941
-0.055699077 -0.04073573 -0.042668227 -0.057182666 0.017610116 0.052751914 0.01207137 -0.034538433
-0.0125408005 -0.05071272 0.013733586 0.031853694 0.015614036 0.0022789475 0.050901126 -0.035904408
-0.006881489 0.013247264 0.010832829 -0.017296605 0.04382341 0.027875613 -0.003224859 -0.04829664
0.040156983 0.025549693 0.024490332 0.009020922 -0.024728695 0.057173323 -0.031450104 -0.0496674
-0.015708638 0.043370217 -0.05315845 -0.005252857 0.018186798 0.0011284584 -0.007879175 0.03722659
-0.015337203 0.03581635 -0.049931746 0.012372772 0.022819875 -0.056461643 -0.016603554 -0.040433194
-0.03833159 -0.020897547 0.03718947 -0.020166267 -0.059945896 0.051104844 0.04988259 -0.058296483
0.021781975 -0.020176705 0.041436173 -0.044920024 0.03702351 0.001935996 0.0018884117 0.03427582
0.03403076 -0.041284643 -0.057747785 0.0060257977 -0.0021691371 -0.051159162 -0.037025183 -0.020120164
-0.038816605 -0.07488817 -0.069090106 -0.02203452 -0.059594736 0.001668289 -0.05090867 0.02745014
-0.049832698 -0.00078153005 -0.047943786 0.026708094 -0.034896128 -0.03074462 -0.026830316 0.015330542
-0.020715395 0.027838347 0.0029438012 0.031059574 0.009536223 0.027085615 0.012282052 -0.017015735
-0.03890682 -0.053115327 -0.023181427 0.02137405 -0.04108544 -0.01527943 -0.02687427 -0.046599697
-0.014766049 -0.013699288 0.0290397 -0.009432884 0.015301729 -0.027598716 -0.04785179 0.047095187
-0.025052804 -0.055966254 -0.014630393 -0.027474863 -0.015217353 -0.029705323 0.038344882 -0.028088542
0.017998818 -0.013197694 0.04493414 0.0025773598 -0.05181147 -0.013047273 -0.027692713 -0.04956213
-0.035676833 0.03130546 0.013820519 0.011465338 0.0019780605 -0.032303352 -0.048385825 -0.0701093
0.021428345 0.017649468 0.012818671 0.034801945 0.03829491 0.047155324 -0.04196836 0.018090324
0.017863758 0.030005718 -0.050214544 0.022404041 -0.06238643 0.0432992 -0.042397637 0.024095448
00000000: c7f3 dd3c fb58 81bc 1293 eabb c442 9abb
00000010: 7e3f bd3c dcfb aabc efd4 2abd 407c 5abd
00000020: f3f5 9fbc 3a52 19bd 24db 2a3d 0e86 75bb
00000030: 9a54 d03c 5bc6 38bd 7261 b4bb 7987 10bd
00000040: ddbb 51bd 7d0e 3a3d c11b 503d 0a96 35bd
00000050: d82f 313d e672 01ba 26a9 60bd 5131 f13c
00000060: 8da4 68bd cd51 463d 984e 81bd 6668 00bd
00000070: 4755 583d 6e5e 97bc 44ed 9e3b 16e9 84ba
00000080: 9a68 413d 9e2a cbbc 5daf 2fbd 43af d83c
00000090: 982e f33c 5abb 07bd a9f2 27bd 3334 e93c
000000a0: 2861 e9bb b972 043d 5143 38bd 30d8 963b
000000b0: 2661 023c 083e 84bc d078 99bc 5857 15bd
000000c0: 3777 6e3c c769 483d bc1d 82bc fca9 a33c
000000d0: 504b 163a 4c87 953b 8ed9 80bd d321 82bd
000000e0: 5d42 2fbd 8ab4 1bbb bd5f 56bc 867e 2bbd
000000f0: d0dc 0fbd adc4 28bd 58b3 6b3c b939 f73c
00000100: 9ced 04bd 6557 6bbc d23e 243d 186d 3b3d
00000110: cca5 78bd 37a4 76bd 2f84 933c b1ce 64bd
00000120: 3f3a d6bc fbd9 4c3d 3396 16bd ef0e b9bc
00000130: 0f31 5dbd 1795 fcbc dbc8 84bd 4099 0b3d
00000140: 1c1f a5ba 5804 5ebd 621d b93c 359f 813c
00000150: c3a7 4cbd 7a36 09bd f15e 853b 3be5 37bd
00000160: 005e 12bd d89b 813c 4310 8dbc ffee 97bc
00000170: 2004 aa3b 1944 3fbd be31 ee3c 4bcd cb3c
00000180: 7c06 9bbc e5f7 ab3b 0e5e 7cbd b6fa f9bc
00000190: 5337 dbbc a3ee 633d c88f e0b9 ec3d a93c
000001a0: b724 64bd 82da 26bd e1c4 2ebd 5f38 6abd
000001b0: 1743 903c 6412 583d ffc6 453c 2c78 0dbd
000001c0: ee77 4dbc 24b8 4fbd d602 613c 0579 023d
000001d0: 03d2 7f3c 655a 153b b37d 503d 8010 13bd
000001e0: 1d7e e1bb 0d0b 593c 2e7c 313c 9cb1 8dbc
000001f0: 2d80 333d 665b e43c 2858 53bb b3d2 45bd
00000200: a67b 243d 974d d13c f39f c83c 7dcc 133c
00000210: d593 cabc 932e 6a3d d3d1 00bd 0b70 4bbd
00000220: 67af 80bc f8a4 313d adbc 59bd 2920 acbb
00000230: 7bfc 943c c8e8 933a a817 01bc e97a 183d
00000240: e448 7bbc 2ab4 123d 3b85 4cbd 2bb7 4a3c
00000250: bff0 ba3c 5344 67bd 2d04 88bc 479d 25bd
00000260: 9601 1dbd 5531 abbc fc53 183d ba33 a5bc
00000270: d489 75bd 5053 513d b051 4c3d 4bc8 6ebd
00000280: 1d70 b23c 9e49 a5bc fab8 293d 0ffe 37bd
00000290: f7a5 173d 3fc1 fd3a 9584 f73a cd64 0c3d
000002a0: d763 0b3d 161a 29bd f188 6cbd 0e74 c53b
000002b0: 1528 0ebb 458c 51bd b8a7 17bd 0bd3 a4bc
000002c0: 29fe 1ebd f85e 99bd 1d7f 8dbd bd81 b4bc
000002d0: 9c19 74bd 7daa da3a 9c85 50bd 1edf e03c
000002e0: 5f1d 4cbd 98df 4cba b460 44bd efca da3c
000002f0: 3eef 0ebd 24dc fbbc 40cb dbbc f42c 7b3c
00000300: 55b3 a9bc 3f0d e43c caec 403b a670 fe3c
00000310: d13d 1c3c a7e2 dd3c a93a 493c 9564 8bbc
00000320: c25c 1fbd 758f 59bd fae6 bdbc a218 af3c
00000330: 3549 28bd 9356 7abc 6e27 dcbc 53df 3ebd
00000340: 4ced 71bc fa72 60bc aae4 ed3c 628c 1abc
00000350: 1ab4 7a3c b416 e2bc 3d00 44bd e2e6 403d
00000360: 8a3b cdbc df3c 65bd 51b4 6fbc f712 e1bc
00000370: 3452 79bc 9458 f3bc 860f 1d3d f119 e6bc
00000380: 4272 933c 243b 58bc dc0c 383d ece8 283b
00000390: 4438 54bd 3bc4 55bc d4db e2bc a901 4bbd
000003a0: df21 12bd 273a 003d 756f 623c 1dd9 3b3c
000003b0: 59a2 013b 8550 04bd 3730 46bd 7795 8fbd
000003c0: 7f8a af3c 9e95 903c 6705 523c 7c8c 0e3d
000003d0: 20db 1c3d f125 413d 04e7 2bbd 2932 943c
000003e0: 0457 923c 8dce f53c c4ad 4dbd ae88 b73c
000003f0: ea88 7fbd 805a 313d 25a9 2dbd d163 c53c

dec3.bias f4 [64]
-0.056402974 0.06336139 -0.08815032 0.08066063 -0.008980403 -0.098353736 -0.1157256 0.0069661224
-0.0635558 -0.052225336 -0.033417128 0.039005145 -0.013349053 0.018163053 -0.12393459 0.020080592
0.007846326 -0.07616529 -0.11210403 -0.23109734 -0.18883692 -0.015896609 -0.03444368 0.03487829
0.0073561985 -0.0075590354 -0.04582378 -0.0855281 0.03112723 -0.020915683 0.021054093 0.011109186
0.027008483 -0.045067094 0.07858409 -0.02419234 -0.007681541 -0.043238506 0.07154238 -0.05097503
-0.027740767 -0.056628767 0.025393922 -0.05545156 -0.06815941 -0.059064284 -0.0014853332 0.09166776
-0.1257744 -0.21972318 0.054137737 -0.1606655 -0.13668884 -0.104219876 0.0007452957 0.07082183
-0.009858416 -0.025171613 -0.11255405 -0.019390728 -0.025931682 -0.028784746 -0.039953917 -0.07037158
00000000: ce06 67bd 9ec3 813d 2888 b4bd 6631 a53d
00000010: 8a22 13bc af6d c9bd 8b01 edbd 1244 e43b
00000020: 8b29 82bd 3cea 55bd 66e0 08bd dcc3 1f3d
00000030: fdb5 5abc afca 943c 6bd1 fdbd 0e80 a43c
00000040: e08d 003c 8cfc 9bbd cc96 e5bd c8a4 6cbe
00000050: 775e 41be 9b39 82bc d114 0dbd 8adc 0e3d
00000060: 440c f13b c9b1 f7bb b7b1 3bbd 5b29 afbd
00000070: 88fe fe3c 5e57 abbc a279 ac3c 4e03 363c
00000080: e540 dd3c 4698 38bd b2f0 a03d 042f c6bc
00000090: 70b5 fbbb dc1a 31bd d084 923d 31cb 50bd
000000a0: 9b40 e3bc 91f3 67bd ea06 d03c 2d21 63bd
000000b0: 2997 8bbd 64ed 71bd 83af c2ba 4ebc bb3d
000000c0: 01cb 00be 1dff 60be 88bf 5d3d 7f85 24be
000000d0: 29f8 0bbe 3b71 d5bd f35f 433a 090b 913d
000000e0: 3285 21bc b334 cebc bd82 e6bd 4ed9 9ebc
000000f0: ae6e d4bc fdcd ebbc b8a6 23bd fa1e 90bd
